slr/model/slr_model.tflite (tflite, 7436 bytes, 6 tensors)

sequential/dense/BiasAdd/ReadVariableOp f4 [20]
0	0x3f93b2bc	1.153892
1	0xbdbfc95e	-0.093645796
2	0xbfe74dbf	-1.8070601
3	0x3f4b7787	0.7947926
4	0x3cf4d528	0.029886797
5	0xbfc94983	-1.5725559
6	0xbf8f439b	-1.1192507
7	0xbfd300c2	-1.6484606
8	0xbba3c759	-0.0049981293
9	0xbf9b9384	-1.2154393
10	0xbf7c2be2	-0.9850446
11	0xbf0c23b5	-0.54741985
12	0xbf006734	-0.50157475
13	0x3f23b546	0.63948476
14	0x3f68ce39	0.9093967
15	0xbf6c65e7	-0.9234299
16	0x3ed3723b	0.41298088
17	0x3fcc3b09	1.5955516
18	0xc00a4dde	-2.1610026
19	0xbea4f20b	-0.32215914

sequential/dense_2/BiasAdd/ReadVariableOp f4 [24]
0	0xbd3b7c85	-0.045773048
1	0xbed6d2b8	-0.4195764
2	0xc024e541	-2.5764925
3	0x3f8a866d	1.0822273
4	0xbe641c15	-0.22276337
5	0x3ecead54	0.40366614
6	0xbb545dbd	-0.0032404505
7	0x3e9092ee	0.28237098
8	0x3f040f48	0.5158582
9	0xbe50a901	-0.2037697
10	0x3fc3c6fe	1.5295103
11	0x3f177ab9	0.59171635
12	0x3fcf8b4f	1.6214389
13	0xbfc1ca8b	-1.5139936
14	0x3f0c5292	0.5481349
15	0xc00e4f2b	-2.223582
16	0x3f359d38	0.7094302
17	0xbeac9bcf	-0.33712623
18	0xbf0895b4	-0.5335343
19	0x3f9344a6	1.1505325
20	0x3f82524c	1.0181365
21	0xbf292c01	-0.6608277
22	0xbf66ab92	-0.90105546
23	0xbfb25fa6	-1.393544

sequential/dense_1/BiasAdd/ReadVariableOp f4 [10]
0	0x4006989b	2.1030643
1	0x3ea8777e	0.32903665
2	0x400cf7e3	2.2026298
3	0x3f7491db	0.9553506
4	0x3e6f198f	0.23349594
5	0xbddce20d	-0.10785303
6	0xbda744c5	-0.081674136
7	0x4016903a	2.352553
8	0x3f52fcb7	0.8241686
9	0xbf189bbb	-0.59612626

sequential/dense/MatMul f4 [20, 42]
0	0x3d532280	0.051546574
1	0x3e459230	0.19294047
2	0x3f23c194	0.6396725
3	0xbf6a1d72	-0.9145118
4	0x3eaf7f2e	0.34276718
5	0xbd8b6d25	-0.06807927
6	0xbe56a241	-0.20960332
7	0x3d05be10	0.03265196
8	0xbf08180a	-0.5316168
9	0x3d8e8c1c	0.069603175
10	0x3e90e9aa	0.28303272
11	0x3b8a1d38	0.004214909
12	0xbd5ee31d	-0.05441581
13	0x3c562496	0.013070246
14	0xbecce2af	-0.40016696
15	0x3c176875	0.009241213
16	0xbf02271e	-0.5084094
17	0xbf0d3b72	-0.5516883
18	0x3f002232	0.5005218
19	0x3da79e10	0.08184445
20	0x3ec711c8	0.38880754
21	0x3dd8ea93	0.105916165
22	0x3f831a17	1.0242337
23	0x3e168e07	0.14702617
24	0x3f8604ae	1.0470178
25	0x3df2121d	0.11819861
26	0xbe384e25	-0.1799856
27	0x3e2307b7	0.15920912
28	0xbf3e5bd6	-0.7435888
29	0x3e2fa55c	0.17152923
30	0xbf1d7e5a	-0.6152092
31	0x3e8c3dd8	0.27390933
32	0xbe990d57	-0.2989299
33	0x3eb41992	0.3517576
34	0xbec44d40	-0.38340187
35	0x3e8668b3	0.26251754
36	0xbf0ca003	-0.5493166
37	0x3e5d93ca	0.21638408
38	0xbf1ec88c	-0.6202476
39	0x3e80301c	0.25036705
40	0xbe5731c3	-0.21015076
41	0x3e8185d8	0.25297427
42	0x3e0bcce0	0.13652372
43	0xbcd3b580	-0.025843382
44	0x3e7e49b2	0.248328
45	0x3e8b7b36	0.2724244
46	0xbb48a4bd	-0.003061577
47	0x3e1ae53a	0.15126505
48	0xbf621115	-0.88307315
49	0x3da4a531	0.0803932
50	0xbfa1222a	-1.2588551
51	0x3d5a03ca	0.05322627
52	0x3e925a6c	0.2858461
53	0x3cdf8c01	0.027288439
54	0xbe159dce	-0.14610979
55	0x3cf5c044	0.029998906
56	0xbf523358	-0.82109594
57	0x3d123590	0.035695612
58	0xbfb07483	-1.3785557
59	0x3cf8de7a	0.030379523
60	0x3f86175b	1.0475878
61	0x3d378818	0.044807523
62	0x3f94327e	1.1577909
63	0x3d4b5669	0.049642954
64	0x3f59309d	0.84839803
65	0x3c8f3903	0.01748324
66	0x3f06ccfb	0.52656525
67	0x3d48f5da	0.049062587
68	0x3ecc1824	0.39862168
69	0x3d3d610e	0.046235137
70	0x3ebf12f9	0.37319162
71	0x3d6db35f	0.05803239
72	0x3fbd36f7	1.4782399
73	0x3d74c582	0.05975867
74	0x40317f1d	2.7733834
75	0xbcb838c5	-0.022488007
76	0xbd5b0f8b	-0.05348162
77	0x3d9d1314	0.076696545
78	0x3df4da40	0.119556904
79	0x3d79b1a0	0.060960412
80	0x3f1e5f27	0.6186394
81	0x3dea6bec	0.11446366
82	0x3fca7a27	1.5818528
83	0x3e54d9d9	0.20786227
84	0xbd7df6f0	-0.062003076
85	0x3e89aef6	0.26891297
86	0xbf589b2a	-0.8461176
87	0xbf94cb8e	-1.162462
88	0xbe74ac98	-0.23893964
89	0xbeb25ee7	-0.3483803
90	0x3daca641	0.08430148
91	0xbe475280	-0.19465065
92	0x3e17b854	0.1481641
93	0xbe047c38	-0.1293801
94	0xbda2f40d	-0.07956705
95	0xbe551cd5	-0.2081178
96	0xbd500403	-0.050785076
97	0xbe0178d1	-0.12643744
98	0xbe39c9f7	-0.1814345
99	0xbca20107	-0.01977588
100	0xbe5f7101	-0.21820451
101	0x3d65a159	0.056062076
102	0x3f262e43	0.6491434
103	0xbe3f38f9	-0.18674077
104	0x3d388592	0.045049258
105	0xbe1810d5	-0.14850171
106	0xbf28d0ad	-0.65943414
107	0xbda429cc	-0.080157846
108	0xbfbef5cc	-1.4918761
109	0xbca560fc	-0.020187847
110	0x3fb14722	1.3849833
111	0xbe31c186	-0.1735898
112	0x3eae5a5c	0.34053314
113	0xbdcde45f	-0.10053324
114	0xbe7cdef3	-0.24694423
115	0xbd4e7b6c	-0.050410673
116	0xbf18815e	-0.595724
117	0xbb980dea	-0.0046403306
118	0x3f74623d	0.954624
119	0xbe620f0f	-0.22076057
120	0x3e7b08f1	0.2451513
121	0xbdb073b4	-0.086158186
122	0xbda0768b	-0.0783511
123	0xbde49945	-0.11162046
124	0xbe6ea243	-0.23304085
125	0x3d804740	0.0626359
126	0x3dd1dc00	0.1024704
127	0xbe792623	-0.24330954
128	0xbf7e5233	-0.99344176
129	0x3ea3b647	0.31975004
130	0xbe5ea925	-0.21744211
131	0x3f129dd2	0.57272065
132	0xbd687927	-0.056756165
133	0x3f5c0d39	0.85957676
134	0xbe0c91ff	-0.13727568
135	0x3f842a3a	1.0325387
136	0xbd952cdd	-0.072839476
137	0x3e2c43b3	0.168227
138	0x3c5476fa	0.012967819
139	0x3f10087f	0.56262964
140	0xbc983a84	-0.01858259
141	0x3f046a29	0.5172449
142	0xbcba483c	-0.022739522
143	0x3e75bf71	0.2399881
144	0xbc919807	-0.017772688
145	0x3f0c841e	0.54889095
146	0xbc9c56b2	-0.019084308
147	0x3fa898ae	1.3171594
148	0x3df88d91	0.12136377
149	0x3ec6bedc	0.3881749
150	0xbcf52433	-0.029924488
151	0xbed9d9ea	-0.42549068
152	0x3cf31321	0.029672207
153	0x3eeb0ed3	0.45909747
154	0x3dbac527	0.09119635
155	0x3f931fef	1.149412
156	0xbd4ed7e9	-0.050498877
157	0x3f404c37	0.75116295
158	0xbda23bac	-0.07921538
159	0x3f362da9	0.7116342
160	0x3df53b4e	0.11974202
161	0x3f1203c8	0.5703702
162	0x3d2cee55	0.04221948
163	0x3f9054ce	1.127588
164	0x3d8fef8b	0.07028111
165	0x3fa0d1e9	1.256406
166	0x3d6ab7d6	0.057304226
167	0x3f91de77	1.1396016
168	0xbd80f27e	-0.06296252
169	0x3dfe4a94	0.124165684
170	0x3d0619ae	0.032739334
171	0x3d8b5cf1	0.068048365
172	0xbd35ab71	-0.044352952
173	0x3d0c813c	0.034302935
174	0xbf7d063a	-0.98837626
175	0xbc238a2d	-0.009981674
176	0xc04893fa	-3.1340318
177	0x3ceefe5b	0.02917402
178	0x3e9d4aff	0.3072128
179	0x3cfafb62	0.030637447
180	0x3ea79569	0.32731178
181	0x3caf1095	0.021370212
182	0x3e5cd811	0.21566798
183	0xbceadcfc	-0.028669827
184	0xbd10dff7	-0.03536984
185	0xbd516ce2	-0.05112923
186	0x3f1813ad	0.5940502
187	0x3b063647	0.002047913
188	0x3e84b1eb	0.2591699
189	0x3c49f4f8	0.0123264715
190	0xbe3539ff	-0.17697905
191	0x3c542faa	0.012950817
192	0xbf11eb5f	-0.5699977
193	0x3bf646f2	0.0075157816
194	0xbf6c2e83	-0.9225847
195	0x3cce39f9	0.025174128
196	0xbf80b1f8	-1.0054312
197	0xbd042e45	-0.03227069
198	0xbfca95ab	-1.5826925
199	0xbdefd4e5	-0.11710528
200	0xc03f8956	-2.9927573
201	0xbe6565b8	-0.22402084
202	0xbecf145f	-0.4044523
203	0x396bd469	0.00022490475
204	0xbe8c14ae	-0.27359527
205	0xbd12b0ab	-0.035813015
206	0xbe9678c9	-0.29389027
207	0xbe923e9d	-0.28563395
208	0xbf47a605	-0.779877
209	0xbe92f0e1	-0.286994
210	0x3db069f4	0.08613959
211	0x3e963f14	0.29345
212	0x3e45d06c	0.19317788
213	0x3e3e79c9	0.18601145
214	0xbdcf0d76	-0.10109989
215	0x3d375246	0.044756196
216	0xbf62f13c	-0.88649344
217	0x3c498aaf	0.012301131
218	0xbff1e6fe	-1.8898618
219	0x3da636ee	0.08115946
220	0x3f09bf25	0.5380729
221	0x3ceeed47	0.029165877
222	0x3ea4764c	0.32121503
223	0x3d51737c	0.051135525
224	0xbd8b528f	-0.06802856
225	0x3d40e472	0.047092862
226	0xbee7aa91	-0.4524732
227	0x3cc92897	0.024555488
228	0x3f1da1a1	0.6157475
229	0x3d0e4793	0.034736227
230	0x3efb307c	0.49060428
231	0x3d5fc090	0.054627
232	0x3dd204fa	0.102548555
233	0x3cca0dc0	0.02466476
234	0xbf0f9c10	-0.5609751
235	0x3c9e2cb6	0.01930843
236	0xbf092886	-0.5357746
237	0x3d4ef68a	0.050528087
238	0x3ce2efb7	0.027702196
239	0x3cfdcd5b	0.03098171
240	0x3f288b05	0.65837127
241	0xbe67b5eb	-0.2262799
242	0x3f0dee83	0.55442065
243	0xbf6ea8e9	-0.93226486
244	0xbeea7414	-0.45791686
245	0x3d51ec78	0.051250905
246	0x3ec270f2	0.37976795
247	0xbd87b0f1	-0.06625546
248	0x3fae86d7	1.36349
249	0xbf188a23	-0.5958578
250	0x3fe1f9a9	1.7654315
251	0xbfac2e29	-1.3451587
252	0x3e7bc43c	0.24586576
253	0x3e65ba2c	0.224343
254	0x3ef3d19a	0.4762085
255	0x3f3aa81b	0.7291276

sequential/dense_1/MatMul f4 [10, 20]
0	0xbe4dd2a9	-0.20099892
1	0xbe355559	-0.17708339
2	0x3ea2d341	0.318018
3	0xc043af53	-3.057576
4	0x3e1d943e	0.15388581
5	0xbe4ab36f	-0.19795011
6	0x3f4c34e5	0.7976821
7	0xbe85dcc9	-0.26145008
8	0x3d47dc5a	0.048794128
9	0x3e5e1995	0.21689446
10	0x3f802370	1.0010815
11	0xbb81c451	-0.0039601703
12	0x3fa665da	1.2999833
13	0xbfe6648a	-1.7999432
14	0x3da8712f	0.08224713
15	0xbe800e92	-0.25011116
16	0xc00d16d5	-2.2045186
17	0x3f026ca3	0.50947016
18	0x3fb77522	1.4332621
19	0xbdba41f5	-0.090946116
20	0xbf28e851	-0.65979487
21	0xbe13f47b	-0.1444873
22	0x40250498	2.5784054
23	0x3e9faa51	0.3118463
24	0x3ee9a8b4	0.45636523
25	0x3e8886bb	0.2666529
26	0x3e3565f8	0.17714679
27	0x3f7a14c7	0.97687954
28	0x3ed0edef	0.4080653
29	0x3f60ba4f	0.87784284
30	0x3e92c3d3	0.28665027
31	0xbc895bcf	-0.01676741
32	0x3f0039cc	0.5008819
33	0x3f09557d	0.5364607
34	0xbec7738b	-0.3895534
35	0x3f23fb9e	0.6405581
36	0x3f2fdfe8	0.6870103
37	0x3db5855c	0.08863327
38	0x3fc24dd1	1.5179998
39	0xbe39d8bf	-0.18149088
40	0x3fb5847f	1.418106
41	0x3e8d5391	0.2760282
42	0xbf80caf5	-1.0061938
43	0x3e2d2dda	0.16912022
44	0xbe3a18fd	-0.18173595
45	0x3e7bd4f3	0.24592952
46	0x3f086971	0.5328589
47	0xbe02fe79	-0.12792386
48	0xbfa7bcef	-1.3104533
49	0x3ef897d6	0.48553342
50	0x3d0ed456	0.034870468
51	0xc021ba6d	-2.5270035
52	0x3f54374d	0.8289688
53	0x3f096d26	0.5368217
54	0xc00c194c	-2.189044
55	0x4014dbd1	2.3259165
56	0xbd92fb97	-0.07176893
57	0x3fde6fca	1.7377865
58	0xbeb3bc15	-0.35104433
59	0x3e86fb05	0.26363388
60	0x3e1cbebe	0.15307137
61	0x3e5cdc58	0.2156843
62	0x3e919360	0.2843275
63	0xbf54680e	-0.82971275
64	0x3ec54827	0.3853161
65	0x3f8ee6af	1.1164149
66	0x401cb710	2.4486732
67	0x3f679be1	0.9047223
68	0x3e88c62b	0.2671369
69	0x404f641e	3.2404857
70	0xbee33224	-0.44374192
71	0xbd1bcace	-0.038035206
72	0xbea81ce6	-0.32834548
73	0xbf9699a7	-1.1765641
74	0x3e149614	0.14510375
75	0x3ee39fb2	0.44457775
76	0xbfb13606	-1.3844612
77	0x3e8f9a40	0.2804737
78	0x3f10f70c	0.56626964
79	0x3c1d1caf	0.009589358
80	0xbd7c096a	-0.061532415
81	0x3d9853e5	0.074378766
82	0x401997ac	2.3998823
83	0xbb72bdea	-0.0037039467
84	0x3e5b31a0	0.21405649
85	0x3f8d0eba	1.1020119
86	0x3d5e5e63	0.054289233
87	0x3fa32f29	1.2748767
88	0x3e91c778	0.28472495
89	0xbf43f7f3	-0.76550215
90	0x401570ef	2.335018
91	0xbd17378e	-0.036918215
92	0x3fa8ea2f	1.3196467
93	0xbdb9392b	-0.09044107
94	0x3e2ed77e	0.17074391
95	0x3f781a18	0.96914816
96	0xbdccdcc4	-0.10003045
97	0x3de97e71	0.1140107
98	0x40219dd0	2.525257
99	0x3da11dbc	0.078669995
100	0x3f51146a	0.81671774
101	0x3e819b67	0.25313875
102	0x3ec57886	0.38568515
103	0xbf44dc7b	-0.76898926
104	0x3fd22f16	1.642062
105	0x3f8191b3	1.0122589
106	0x3e7e3f90	0.24828935
107	0x3f70aea2	0.9401647
108	0x3fb7d3ab	1.4361471
109	0x3dbecbf9	0.093162484
110	0x3dcc0b93	0.09963145
111	0x4018c718	2.3871517
112	0xbbe92285	-0.0071147108
113	0x3ec1b38f	0.37832305
114	0x401ea901	2.4790652
115	0xbf22930d	-0.6350563
116	0xbfc4adfe	-1.5365598
117	0x3e2578d9	0.16159381
118	0x3f0a74b9	0.54084355
119	0x3e40f397	0.18842922
120	0xbdf49d03	-0.1194401
121	0x402d9a92	2.7125592
122	0x3e1807f6	0.14846787
123	0xbd62008e	-0.05517631
124	0x3e364bc7	0.17802344
125	0x3f86df77	1.0536946
126	0x3ef96b35	0.48714605
127	0x3f200559	0.6250816
128	0x3e1447a7	0.14480458
129	0xbe09a23c	-0.13440794
130	0x3eed4659	0.46342734
131	0xbd4dc9e7	-0.050241377
132	0x3dda2a67	0.10652619
133	0x3f0cfba9	0.550715
134	0xbe863ad4	-0.26216757
135	0x3f9c3ed6	1.2206676
136	0x3ea13360	0.3148451
137	0xbd65a107	-0.05606177
138	0x3ecebd1b	0.4037865
139	0x402b7bbe	2.6794276
140	0xbf3e8e9b	-0.7443635
141	0x3ce07fb7	0.02740465
142	0xbebd10f9	-0.36927012
143	0x3f5f3309	0.8718725
144	0x3e46bb26	0.19407329
145	0x3f982ec5	1.1889273
146	0xbefdb8cf	-0.4955506
147	0x3f980700	1.1877136
148	0x3d5de629	0.054174576
149	0xbe032109	-0.1280557
150	0xbda37611	-0.07981504
151	0xbe599aa1	-0.21250392
152	0xbd30f32f	-0.043200668
153	0xbea3a6f3	-0.3196331
154	0x3dce1ea7	0.1006444
155	0xbe71795a	-0.23581448
156	0xbfc3b36b	-1.5289129
157	0xbe0a220f	-0.13489555
158	0xbe16e782	-0.1473675
159	0x3c05903d	0.008152065
160	0x3fd0627e	1.6280057
161	0x3f1021cd	0.56301576
162	0xbed9c32a	-0.4253171
163	0x3bec0c57	0.0072036195
164	0x3f42450a	0.75886595
165	0xbde371d0	-0.111056924
166	0x3e9c241c	0.304963
167	0x3db0ddc7	0.08636051
168	0x3f308aac	0.68961596
169	0xbefc60b9	-0.49292544
170	0x3dcc6962	0.09981038
171	0xbe530f34	-0.20611268
172	0x3ed3b73a	0.41350728
173	0x3e80d486	0.25162143
174	0x3e60f170	0.21967101
175	0xbec3154f	-0.38102195
176	0x3df958a4	0.1217511
177	0x3fc3a751	1.5285436
178	0xbe908e83	-0.28233728
179	0x3f10d7c0	0.5657921
180	0x3f35ac19	0.70965725
181	0x3f32a354	0.6978047
182	0x3f8b710c	1.0893874
183	0x3fae8d67	1.3636903
184	0x3eca850f	0.3955464
185	0xbfc08b77	-1.5042561
186	0xbeb510be	-0.35364336
187	0xc02f9a49	-2.7437918
188	0x3eb58fac	0.35461175
189	0x3fe22c86	1.7669837
190	0x3d92836f	0.07153975
191	0x3ecf4381	0.4048119
192	0x3f29b890	0.66297245
193	0x3f05e88e	0.52307975
194	0x3f215827	0.63025135
195	0xbddd4e81	-0.10805989
196	0x3e7ce722	0.24697545
197	0x3f5d5f21	0.8647328
198	0x3e508e96	0.20366892
199	0x3f064238	0.5244479

sequential/dense_2/MatMul f4 [24, 10]
0	0x3e6ca2de	0.23109004
1	0x3ddedcc1	0.10881949
2	0xbfa041a0	-1.2520027
3	0xbf30232a	-0.68803656
4	0x3e99d703	0.30046853
5	0x3e84f789	0.25970104
6	0x3f29b1ec	0.6628711
7	0xbd2453e9	-0.040119085
8	0xbf379aed	-0.71720773
9	0xbf399cd7	-0.72504944
10	0xbe216ba8	-0.15763724
11	0xbe2f721e	-0.17133376
12	0xbe52ea70	-0.20597243
13	0x3f0f229d	0.5591219
14	0xbd899afe	-0.067190155
15	0x3ddb21fc	0.106998414
16	0xbec09616	-0.37614506
17	0x3e29f716	0.16598162
18	0xbee3772f	-0.44426867
19	0xbf184459	-0.5947929
20	0xbe8ddb67	-0.27706453
21	0xbdb6972c	-0.089155525
22	0xbf2dbedb	-0.6786935
23	0x3f1f0cba	0.62128794
24	0x3ece314c	0.40271986
25	0x3ed6035f	0.41799447
26	0xbe3247b6	-0.17410168
27	0xbf08c363	-0.53423136
28	0xbf4feb9b	-0.8121888
29	0xbeb728b7	-0.3577325
30	0x3ecc9cca	0.3996337
31	0xbf41536f	-0.75517935
32	0xbf16899b	-0.5880372
33	0xbcd3cffb	-0.025856009
34	0xbc2b27a3	-0.010446462
35	0xbe9d47d9	-0.30718878
36	0x3b362f55	0.0027799208
37	0x3ba1f29b	0.004942251
38	0x3f25f7f2	0.6483146
39	0xbff23e95	-1.8925349
40	0x3eaf833f	0.3427982
41	0x3f0c73ba	0.54864085
42	0xbeaa5700	-0.332695
43	0xbe5730ff	-0.21014784
44	0x3e8e33da	0.27773935
45	0xbfc01865	-1.5007445
46	0x3f0630a5	0.52417976
47	0x3f148f60	0.5803127
48	0xbfc52c8b	-1.5404218
49	0xbf882ebc	-1.0639262
50	0xbf4c1e0a	-0.79733336
51	0x3e6c6ba2	0.23087934
52	0xbf8cbd22	-1.0995219
53	0x3f16d7b8	0.5892291
54	0xbf130cef	-0.5744161
55	0xbdec4669	-0.11536867
56	0x3f06e847	0.5269818
57	0x3e5fb677	0.21846949
58	0xbeac528b	-0.33656725
59	0xbe99b5cc	-0.30021513
60	0xbfa9bccb	-1.326074
61	0x3d560167	0.05224743
62	0xbcb76e07	-0.022391332
63	0xbf7f20e3	-0.99659556
64	0xbef451f0	-0.47718763
65	0x3ecc9561	0.39957717
66	0xbf4c427c	-0.7978895
67	0xbec3f1f7	-0.38270542
68	0x3e843bee	0.25826973
69	0x3ea94375	0.33059278
70	0xbfc9bf53	-1.5761513
71	0x3e3612cc	0.17780608
72	0x3d067149	0.03282288
73	0xbd8b6400	-0.06806183
74	0xbd9859bb	-0.0743899
75	0x3e936418	0.28787303
76	0xbf63401c	-0.887697
77	0xbf59f532	-0.85139763
78	0xbe1b2dd7	-0.15154205
79	0x3f385e0d	0.7201851
80	0xbddf679f	-0.10908436
81	0xbe56e3f7	-0.20985399
82	0xbf919e05	-1.1376349
83	0xbe903f0f	-0.2817311
84	0x3d7c0ba9	0.061534557
85	0x3e9d7ead	0.30760708
86	0xbe9b553a	-0.3033846
87	0x3f4f8f1c	0.8107774
88	0xbf2d4c08	-0.6769414
89	0xbefa1579	-0.48844507
90	0x3e9a5e89	0.3015025
91	0xbf9ede31	-1.2411557
92	0x3f10a091	0.56495005
93	0xbf041e79	-0.51609
94	0x3ee15269	0.44008186
95	0xbf92e275	-1.1475359
96	0x3f09d0be	0.5383414
97	0xbfcac1b2	-1.5840361
98	0x3ce839ca	0.028347868
99	0xbf9b67e6	-1.2141082
100	0xbed298d6	-0.4113223
101	0xbfbacef4	-1.4594407
102	0xbf6ad199	-0.9172607
103	0x3d0e038e	0.03467136
104	0xbf1829c0	-0.59438705
105	0x3f041a2e	0.5160245
106	0x3e5a3737	0.21310125
107	0xbe27fa9e	-0.16404197
108	0x3ec93ab5	0.39302602
109	0xbfb00360	-1.375103
110	0x3eaaa9e4	0.3333274
111	0x3f06f11b	0.5271165
112	0xbd96048d	-0.07325087
113	0xbed4fe9f	-0.4160051
114	0x3f19aeb1	0.6003218
115	0xbffbb2af	-1.9663905
116	0xbea2f670	-0.31828642
117	0x3e468284	0.19385725
118	0xbff3bafb	-1.9041437
119	0xbf909474	-1.1295304
120	0x3f59af81	0.8503342
121	0x3e915c3e	0.28390688
122	0xbf8f981e	-1.1218297
123	0xbfa4095e	-1.2815359
124	0x3ed6eaf6	0.41976136
125	0xbe67a943	-0.22623162
126	0xbfbbf42c	-1.468389
127	0x3f0edddb	0.55807275
128	0xbf92d3a8	-1.1470842
129	0xbf8cf8d5	-1.1013438
130	0xbdf008c2	-0.117204204
131	0x3ec2cf87	0.38048956
132	0xbf646360	-0.89214134
133	0x3ecf54a2	0.40494257
134	0x3d5c1d98	0.05373916
135	0x3e9b75ba	0.30363256
136	0x3ebf9f61	0.37426284
137	0xbed8028a	-0.42189437
138	0xbf8280d4	-1.0195565
139	0xbeb8c23f	-0.36085698
140	0xbf57149a	-0.8401581
141	0xbe46e300	-0.19422531
142	0x3f434620	0.7627888
143	0xc001b1a8	-2.0264683
144	0xbb6ada57	-0.0035835707
145	0xbfd0e9d0	-1.6321354
146	0x3eba24b4	0.36356127
147	0xbf8a7590	-1.0817127
148	0xbe8008df	-0.25006768
149	0x3ecf1642	0.4044667
150	0xbeeba911	-0.46027425
151	0x3f032e70	0.51242733
152	0x3d82e756	0.0639178
153	0xbf5d5906	-0.86463964
154	0xbfe435a5	-1.7828871
155	0xbf27b0e8	-0.6550431
156	0x3ea29d84	0.317608
157	0xbd2947b9	-0.041328166
158	0x3ea0c5ef	0.3140101
159	0x3ecbf8d4	0.39838278
160	0x3f5db226	0.8659996
161	0xbf10a8a3	-0.5650732
162	0x3f1e1341	0.6174813
163	0x3edf5b55	0.43624368
164	0xbf9e6ded	-1.2377297
165	0xc0861aea	-4.1907854
166	0xc00b3bf4	-2.1755342
167	0xbe9e6c73	-0.30942115
168	0xbf14bbf0	-0.5809927
169	0xbf8bb7fb	-1.0915521
170	0x3eb7a18e	0.35865444
171	0x3eb8c353	0.3608652
172	0xbf4ef9b0	-0.8084974
173	0xbf141aab	-0.5785319
174	0x3ea58c3a	0.32333547
175	0xbebca28c	-0.36842763
176	0x3ef2b7dc	0.474059
177	0x3e3790dd	0.17926355
178	0xbeb2e279	-0.3493841
179	0xbf420e88	-0.7580342
180	0x3df1b022	0.11801173
181	0xbece3576	-0.40275162
182	0xbebf1688	-0.37321877
183	0xbf9fd3c7	-1.2486504
184	0x3f0751df	0.528593
185	0x3ea62575	0.32450452
186	0xbe7ba754	-0.2457555
187	0xbfa7502b	-1.307134
188	0x3e6cbad8	0.2311815
189	0x3e545e8a	0.20739189
190	0x3f4191be	0.7561301
191	0xbec16bfd	-0.377777
192	0xbf00c9e4	-0.5030806
193	0x3eae2717	0.34014198
194	0xbfc555a2	-1.5416758
195	0xbe16b33c	-0.1471681
196	0xbfef20cb	-1.8681883
197	0xbe80b822	-0.25140482
198	0x3e98cba3	0.29842862
199	0xbf33d790	-0.702508
200	0x3ede6433	0.4343582
201	0xc033fe35	-2.8123906
202	0x3ed77cbe	0.42087358
203	0x3e973869	0.29535225
204	0xc08644eb	-4.195913
205	0xbfa96117	-1.3232754
206	0x3e9a3392	0.3011747
207	0xbe484574	-0.19557744
208	0x3d065621	0.032796983
209	0xbf7e676e	-0.9937657
210	0xbed153be	-0.40884203
211	0xbfa50c38	-1.2894354
212	0x3f31d498	0.6946502
213	0x3f208f04	0.62718225
214	0xbf868830	-1.0510311
215	0xbfb986e8	-1.4494295
216	0x3f0fa267	0.5610718
217	0x3ec1bf28	0.37841153
218	0xbf8c6581	-1.0968477
219	0xbf5a3df0	-0.8525076
220	0x3ef1a46a	0.4719575
221	0xbdf7910d	-0.12088213
222	0xbef512f0	-0.4786601
223	0x3d4deda8	0.050275475
224	0x3e9406f2	0.2891155
225	0x3e899054	0.26867926
226	0xbf8193ae	-1.0123193
227	0xbfe3a6df	-1.77853
228	0xbe35411c	-0.17700619
229	0x3e497f85	0.19677551
230	0xbf257b7a	-0.64641535
231	0xbe85f14d	-0.2616066
232	0xbf8c2db4	-1.0951447
233	0xbf1ab1cc	-0.60427547
234	0x3f610210	0.8789377
235	0xbde04ad1	-0.1095177
236	0x3f000111	0.5000163
237	0x3e8a9373	0.2706562
238	0x3dcd42dd	0.10022519
239	0xbe0cae5a	-0.13738385
